Model: "sequential"
_________________________________________________________________
Layer (type)                 Output Shape              Param #   
=================================================================
conv2d (Conv2D)              (None, 200, 200, 32)      896       
_________________________________________________________________
activation (Activation)      (None, 200, 200, 32)      0         
_________________________________________________________________
flatten (Flatten)            (None, 1280000)           0         
_________________________________________________________________
dense (Dense)                (None, 10)                12800010  
_________________________________________________________________
activation_1 (Activation)    (None, 10)                0         
=================================================================
Total params: 12,800,906
Trainable params: 12,800,906
Non-trainable params: 0
_________________________________________________________________
